data.pth (torch, 197631 bytes, 6 tensors)

l1.weight f4 [8, 2154]
0	0x3f85b212	1.0444968
1	0x4098c9c4	4.7746296
2	0x40c32f33	6.0995116
3	0x3fc40371	1.531355
4	0x3f09893c	0.5372503
5	0x4026497d	2.5982354
6	0x3faa5afd	1.3309017
7	0x4085e307	4.1839633
8	0x40090f85	2.1415722
9	0x408615b6	4.1901503
10	0x401f6aaf	2.4908864
11	0x402898a9	2.6343176
12	0x40229488	2.5403156
13	0x40848da3	4.1422896
14	0x404e1b36	3.2204108
15	0xbf343820	-0.7039814
16	0x401272db	2.2882602
17	0x407f0044	3.9843912
18	0x40708bdf	3.758537
19	0x405733f2	3.3625455
20	0x401ecaf1	2.4811366
21	0x3ff3cb24	1.9046369
22	0x40071320	2.1105423
23	0x3fddc193	1.7324699
24	0x408b0578	4.3444176
25	0x4067b775	3.6205723
26	0x404c6ab8	3.1940136
27	0xbda6a7c9	-0.08137471
28	0x3cdbb396	0.026819032
29	0x405e1d46	3.4705367
30	0x3fcd2fcd	1.6030213
31	0x3fe82276	1.8135517
32	0x3f5bb321	0.85820204
33	0x41198e3e	9.597227
34	0x400c9238	2.1964245
35	0x4000ae34	2.0106325
36	0x3fee21f4	1.8604112
37	0x3f76d47f	0.96417993
38	0x3fdd467b	1.7287134
39	0x3faf3141	1.3686906
40	0x3fbfbe2a	1.4979908
41	0x3fe44550	1.7833652
42	0x3fd6ee90	1.6791553
43	0x3f327926	0.6971611
44	0x400865b7	2.1312082
45	0x3f8cf5ed	1.101255
46	0x3f48c2da	0.7842232
47	0x3fa7d3d2	1.3111517
48	0x3fcbe8dc	1.5930438
49	0xbf02df05	-0.5112155
50	0x3faa6ff9	1.3315421
51	0x408021f4	4.0041447
52	0x40a9dabe	5.307952
53	0x3e94485d	0.2896146
54	0x3e928ec0	0.28624535
55	0x3fa61d4f	1.2977694
56	0xbf986566	-1.1905944
57	0x3dde53b7	0.10855811
58	0x401f1702	2.4857793
59	0x3f76472d	0.96202356
60	0x407e5c79	3.974394
61	0x408268a5	4.075274
62	0x4029a83c	2.6508932
63	0x3a5a8fba	0.0008337457
64	0x3fbb92ec	1.4654212
65	0x40832bee	4.0991125
66	0xbde2007f	-0.11035251
67	0x403f6d9d	2.9910653
68	0x4018aa1c	2.3853827
69	0x3ff48398	1.9102659
70	0x3f8bf0cc	1.093286
71	0x3f51c5a2	0.8194219
72	0x3ffffca5	1.9998976
73	0x3f329cb7	0.6977038
74	0x3feaf495	1.835589
75	0x3f5a5f3d	0.8530157
76	0x404458f4	3.0679293
77	0x405b0d74	3.422696
78	0x401b1b8b	2.423556
79	0x3f06ec5a	0.52704394
80	0xbf283811	-0.6571055
81	0x3ed989a7	0.42487833
82	0x3f2be156	0.6714071
83	0x40082d46	2.1277633
84	0x40606bc5	3.5065777
85	0x40579ecb	3.369067
86	0x3f50767c	0.8143079
87	0xbf24f397	-0.6443419
88	0x40675d9a	3.615088
89	0x405693bb	3.3527668
90	0x407558f6	3.8335547
91	0x401b4884	2.426301
92	0x40aa3a8a	5.319646
93	0x3fbe3c42	1.4862139
94	0x3ff480c8	1.9101801
95	0x3fed1169	1.8520938
96	0x4087d50f	4.244758
97	0xbfe7a797	-1.8098019
98	0x40532382	3.2990422
99	0x401f860b	2.4925563
100	0x4020654e	2.5061831
101	0x3f465a7e	0.7748183
102	0x4019530c	2.3956938
103	0xbf2c92fa	-0.6741177
104	0x3ff80232	1.937567
105	0x3fe5d545	1.795571
106	0x40205fdf	2.5058515
107	0xbefd60ee	-0.49488014
108	0x3f7cb157	0.987081
109	0x403ed813	2.9819381
110	0xbf9cb495	-1.2242609
111	0x400c06ea	2.187922
112	0x3fdb21cf	1.7119693
113	0x401caa90	2.4479103
114	0x40cc09eb	6.3762107
115	0x40501bf9	3.2517073
116	0x4041bc26	3.0271087
117	0x40178fec	2.3681593
118	0x408085eb	4.0163474
119	0xbf0e1c1c	-0.5551164
120	0x402770ec	2.6162672
121	0x40614359	3.5197356
122	0x4009813b	2.1485126
123	0x40a6b72f	5.2098613
124	0x408aeff4	4.341791
125	0x409198e5	4.549914
126	0x3f0845e7	0.5323166
127	0x401f5d89	2.490084
128	0x40300a55	2.7506306
129	0x3f816ab7	1.0110692
130	0x40c4ca07	6.1496615
131	0x40177041	2.3662264
132	0x4040fdd8	3.0154934
133	0x3e9facad	0.3118643
134	0x40a10dbb	5.032926
135	0x4014b100	2.3233032
136	0x3f2f60f1	0.68507296
137	0x3ff08267	1.8789796
138	0x409a2686	4.8172026
139	0x403464a1	2.818642
140	0x402b8c06	2.6804214
141	0x4055cf5a	3.3407807
142	0x3f570f0f	0.8400735
143	0x40812ae5	4.036486
144	0x404798b0	3.1186943
145	0x3f5c7b4b	0.8612563
146	0x40a65454	5.197794
147	0x40c17cf6	6.046504
148	0x4086d971	4.214043
149	0x4010ff1b	2.2655704
150	0x3fdc3400	1.7203369
151	0x405df210	3.4678993
152	0x40171ccd	2.3611329
153	0x4081a583	4.051454
154	0xbdb2d7e8	-0.08732587
155	0x408cd8b8	4.401455
156	0x3fc67ec1	1.5507432
157	0x4114899f	9.283599
158	0x3fcc47d3	1.5959419
159	0x4101833b	8.094539
160	0x3fc1eebe	1.5150983
161	0x40a21c8e	5.0659857
162	0x3ff58a0c	1.9182754
163	0x402edccc	2.7322264
164	0x404ff213	3.24915
165	0x40d32f36	6.599513
166	0x400c1a61	2.18911
167	0x4050fcb3	3.2654235
168	0x3efbb4f6	0.491615
169	0x4095e709	4.6844525
170	0x40353329	2.8312476
171	0x3f93579f	1.1511115
172	0x4070a049	3.759783
173	0x40b68dd6	5.704814
174	0x407f0cff	3.9851682
175	0x403b8abc	2.9303427
176	0xbf2c5e31	-0.67331225
177	0xbe934b26	-0.2876827
178	0x403ef420	2.9836502
179	0x409f71a8	4.982624
180	0x3f5dac2c	0.8659084
181	0x40a00519	5.0006223
182	0x3ed2e5e8	0.4119103
183	0x408de9d5	4.434794
184	0x3f6224a4	0.8833716
185	0x405b300c	3.4248075
186	0x3fb66f41	1.4252702
187	0x3e4b77d2	0.19869927
188	0x3eca078c	0.39458883
189	0x3e90afb5	0.28259054
190	0x3edd6d5d	0.432475
191	0x4065174e	3.5795474
192	0x3f75eeab	0.96067303
193	0x3f8fbcd6	1.1229503
194	0x4006841d	2.1018136
195	0x3fc1ea09	1.5149547
196	0xbf816e03	-1.0111698
197	0x40153cd0	2.3318367
198	0x40780c3c	3.8757467
199	0x3effe35c	0.4997815
200	0x4047451e	3.1135936
201	0x40850a7a	4.157529
202	0x40027e47	2.0389574
203	0x401969a7	2.3970735
204	0x4037c58f	2.871433
205	0x40330b3d	2.797561
206	0x401dd8e7	2.4663637
207	0xbec42ae6	-0.3831398
208	0x4010383f	2.253433
209	0x4095826e	4.6721716
210	0x3fab3bc4	1.3377614
211	0x40f44bcd	7.634253
212	0x4030217b	2.7520435
213	0x409477af	4.63961
214	0xbfe58186	-1.7930152
215	0x40de0f0d	6.9393373
216	0x408eaed5	4.458842
217	0x403de77b	2.9672534
218	0x40138403	2.3049324
219	0x3f5bdba3	0.85882014
220	0x3f950605	1.1642462
221	0x3f77d8b3	0.9681503
222	0x3e8cf8ab	0.2753347
223	0x3eda6d37	0.4266145
224	0x4090a1ba	4.519742
225	0x4008a144	2.1348429
226	0x3f2864b9	0.6577869
227	0x3f7ad107	0.979752
228	0x4026e9db	2.6080234
229	0x4102d5ac	8.177166
230	0x4014e938	2.3267345
231	0x408f6088	4.4805336
232	0x4000a91e	2.010322
233	0x3fc39c35	1.5282046
234	0xbf8e0750	-1.1095982
235	0x40344302	2.8165898
236	0x402120f0	2.5176353
237	0x3f87acc8	1.0599604
238	0x4095ede2	4.6852884
239	0x4040eea6	3.014566
240	0x3ef99bac	0.4875158
241	0x3fa9eece	1.3276002
242	0x40c411e7	6.1271853
243	0x40b1b3a4	5.553179
244	0x40c491de	6.142806
245	0x40acc3b9	5.398892
246	0x403b9ed7	2.9315698
247	0x40ac81cc	5.3908443
248	0x3ce52f20	0.027976573
249	0x400ed83b	2.2319477
250	0x40b865e9	5.76244
251	0x401d1c8c	2.4548674
252	0x3ff937d2	1.947016
253	0x3ee0f130	0.4393401
254	0x3ff4e0e0	1.9131126
255	0xbe6cfb09	-0.23142637

l1.bias f4 [8]
0	0x40084687	2.1293046
1	0xbd5ec258	-0.05438456
2	0x3ffee002	1.9912112
3	0x3dcd2ec2	0.10018684
4	0x3c1804f9	0.009278529
5	0x3fdb4ed1	1.7133428
6	0x3f0178a0	0.50574684
7	0x3fd3716c	1.6518989

l2.weight f4 [8, 8]
0	0x40405953	3.005452
1	0x3ebe6a88	0.37190652
2	0x3f90a82d	1.1301323
3	0xc03ef2f0	-2.9835777
4	0xc03bb1bd	-2.9327233
5	0xc05306a7	-3.297281
6	0x40680ccd	3.6257813
7	0xbf761c91	-0.9613734
8	0x3f80c0dd	1.0058857
9	0x405753b1	3.364483
10	0x3f820b19	1.0159637
11	0xbf9f23ca	-1.2432797
12	0x4088241f	4.2544093
13	0xbf43c65c	-0.7647455
14	0xbf7cd856	-0.987676
15	0xbfeca733	-1.8488525
16	0xc05fdc9b	-3.4978397
17	0x40191ce2	2.3923879
18	0xbe729433	-0.23689346
19	0x405a5483	3.4114082
20	0xbebf3426	-0.37344474
21	0x400c2c0c	2.1901884
22	0x409d2c32	4.911645
23	0x3fc764f1	1.557768
24	0x3fb7bb4c	1.4354033
25	0xc085f32f	-4.1859355
26	0x3f44e594	0.7691281
27	0x406106b5	3.5160344
28	0xbfb80421	-1.437626
29	0xbf8de822	-1.1086466
30	0x3f097df6	0.53707826
31	0x3e3d8449	0.18507494
32	0x3eb74cb9	0.35800722
33	0xc0371253	-2.8604934
34	0x408ef577	4.467464
35	0xbff7fac5	-1.9373404
36	0xbf83a0c8	-1.0283442
37	0x40bf6014	5.9804783
38	0xbf6f9ea3	-0.93601435
39	0x3e57b6e7	0.21065865
40	0x400b80b9	2.1797316
41	0xbec48e6a	-0.38389903
42	0xc033d6e2	-2.8099904
43	0xc01ab163	-2.4170768
44	0x3e018282	0.12647441
45	0x3f634798	0.8878112
46	0xbf0c5f06	-0.54832494
47	0x409e4b88	4.94672
48	0xbf3217c9	-0.69567543
49	0x4026365f	2.5970685
50	0x401b1339	2.4230483
51	0xbd08d217	-0.033403482
52	0xc03c9880	-2.9468079
53	0xc028157e	-2.6263118
54	0xc0874836	-4.227565
55	0x40353630	2.8314323
56	0x400f8378	2.2423992
57	0x3fcd9b51	1.6063024
58	0x3f639c0c	0.88909984
59	0x3f63b187	0.8894276
60	0xbffeda2a	-1.9910328
61	0x401364cc	2.3030272
62	0x3ea364bb	0.3191279
63	0x3eedb574	0.464275

l2.bias f4 [8]
0	0xbeb17cf6	-0.3466565
1	0xbfbe0399	-1.4844848
2	0xbfb29a97	-1.3953427
3	0xbdcbb794	-0.09947124
4	0xbf6a0240	-0.91409683
5	0xbe94afb3	-0.29040298
6	0xbe8f6c51	-0.28012326
7	0xbe48f691	-0.19625308

l3.weight f4 [859, 8]
0	0xc0339f6e	-2.8066058
1	0xc1404ce9	-12.018777
2	0xc0793f56	-3.8944907
3	0xc11352ca	-9.207712
4	0xbfe69f06	-1.801728
5	0xc03b6afd	-2.928405
6	0xbfed64b7	-1.8546361
7	0xc01a1f73	-2.4081695
8	0xbf8ddb57	-1.1082562
9	0xc118346f	-9.512801
10	0xc13cbe3a	-11.796442
11	0xc10e1982	-8.8812275
12	0xc03f4e73	-2.9891632
13	0xc06bd2af	-3.684734
14	0xc0060838	-2.0942516
15	0xbfd364ca	-1.6515133
16	0xc04d51d1	-3.2081187
17	0xc0c958b3	-6.2920775
18	0xc0277ba2	-2.616921
19	0xc1349ae0	-11.287811
20	0xc0c07a06	-6.0148954
21	0xc02c54a6	-2.6926665
22	0x3de555b5	0.11197988
23	0xbfb476e7	-1.4098786
24	0xc0388d08	-2.8836079
25	0xc0c391d5	-6.111552
26	0xbfdfea89	-1.749345
27	0xc0da83c2	-6.8285837
28	0xc04b0ed4	-3.17278
29	0xbfdbe041	-1.7177812
30	0xbf59917c	-0.84987617
31	0xc09e59db	-4.9484687
32	0xbfdf3c1e	-1.7440221
33	0xc0ab5425	-5.3540215
34	0xbfb40bd5	-1.4066111
35	0xc1113a15	-9.07668
36	0xc0922e8f	-4.5681834
37	0xbfe37b90	-1.7772083
38	0xbfd871d6	-1.690974
39	0xc06c116b	-3.688563
40	0xc02f6725	-2.7406704
41	0xc1014d5e	-8.081388
42	0xc094b1c7	-4.6467013
43	0xc105671d	-8.337674
44	0xc084a39b	-4.1449714
45	0xc0560d37	-3.3445566
46	0xc0168c59	-2.3523161
47	0xbef23109	-0.47303036
48	0xc071815a	-3.77352
49	0xc14ba741	-12.728333
50	0xc03e3c4a	-2.9724298
51	0xc0c613d7	-6.189922
52	0xc05297d5	-3.290517
53	0xc0949f74	-4.6444645
54	0xc098d7ea	-4.7763567
55	0xbfaca8f4	-1.348906
56	0xbfb22f75	-1.3920733
57	0xc1306294	-11.024067
58	0xc0498448	-3.1486988
59	0xc0dd620a	-6.9182177
60	0xc0862a11	-4.192635
61	0xc08465f7	-4.137447
62	0xc0378b49	-2.8678763
63	0xbfc0f913	-1.5076011
64	0xc0a4b982	-5.147645
65	0xc13e3430	-11.887741
66	0xc034e9cf	-2.8267705
67	0xc100d249	-8.051339
68	0xc0847b18	-4.140026
69	0xc00a8209	-2.1641867
70	0xbf821f02	-1.0165713
71	0xbfcac8ae	-1.5842493
72	0xc047ba9a	-3.1207643
73	0xc128111a	-10.504175
74	0xbf7b2082	-0.9809648
75	0xc1089011	-8.535172
76	0xc02bbad2	-2.6832776
77	0xc08ae624	-4.3405933
78	0xc02bf9bc	-2.6871176
79	0xc0190554	-2.3909502
80	0xbfccf8a0	-1.6013374
81	0xc0cb22e0	-6.348007
82	0xc06ec832	-3.730969
83	0xc12585c8	-10.345161
84	0xc05c5f79	-3.4433272
85	0xc05f392f	-3.4878652
86	0xc0c6896b	-6.2042747
87	0xbf49696b	-0.7867648
88	0xc0112744	-2.2680216
89	0xc0bd6c53	-5.919473
90	0xc0159a0e	-2.3375278
91	0xc15b9e09	-13.726083
92	0xc09f29f5	-4.9738717
93	0xc06c1ff7	-3.689451
94	0xbf5fac5f	-0.8737239
95	0xbf834d12	-1.0257895
96	0xbfdbac22	-1.7161906
97	0xc0b90c18	-5.7827263
98	0xc013fc97	-2.3122919
99	0xc1250812	-10.31447
100	0xc0318a9e	-2.7740855
101	0xc09b80c6	-4.8594694
102	0xc06b406e	-3.6758075
103	0xbfcd97fc	-1.6062007
104	0xc0b61730	-5.6903305
105	0xc0ed7774	-7.4208317
106	0xc0308908	-2.7583637
107	0xc0e3c40e	-7.1176825
108	0xc02ec3e5	-2.7307065
109	0xc0b88c65	-5.767138
110	0xc0559f13	-3.3378341
111	0xbf8af270	-1.0855236
112	0xbfb72929	-1.4309436
113	0xc1280896	-10.502096
114	0xc012c616	-2.2933402
115	0xc0e2803d	-7.078154
116	0xc0314069	-2.7695563
117	0xc0ca9d9c	-6.3317394
118	0xc0600d7a	-3.5008225
119	0xc0087ffb	-2.1328113
120	0xc1139792	-9.224504
121	0xc0cfd141	-6.4942937
122	0xbfea65f3	-1.8312362
123	0xc14de95c	-12.8694725
124	0xbff30d60	-1.8988457
125	0xc0465bb2	-3.0993466
126	0xc0887736	-4.264552
127	0xc015fa25	-2.3433926
128	0xc09a5b04	-4.8236103
129	0xc0d181a0	-6.5470734
130	0xc032ea6a	-2.7955575
131	0xc13a811b	-11.65652
132	0xc00e18d4	-2.2202654
133	0xc0aef24f	-5.4670787
134	0xc034f112	-2.8272138
135	0xbf2a67cd	-0.6656464
136	0xbfb9f555	-1.4527994
137	0xc0965dea	-4.698964
138	0xc0608c07	-3.5085466
139	0xc10547c9	-8.330026
140	0xc01e6fcd	-2.4755738
141	0xc0b0d16a	-5.5255632
142	0xc03d6ac0	-2.9596405
143	0xc029acdf	-2.6511762
144	0xc013fc30	-2.3122673
145	0xc0e4db2a	-7.1517534
146	0xc01b4b43	-2.4264686
147	0xc163cc5e	-14.237394
148	0xbfaec4a5	-1.3653761
149	0xc0eb29d2	-7.348855
150	0xc023787e	-2.5542293
151	0xbf98d5df	-1.1940268
152	0xc04293e8	-3.0402775
153	0xc0ad2219	-5.4104123
154	0xc0132716	-2.2992606
155	0xc15c0be4	-13.752903
156	0xc0213e49	-2.5194266
157	0xc0878609	-4.2351117
158	0xc06b9526	-3.6809783
159	0xbfb983ad	-1.4493309
160	0xbf3fd0cf	-0.7492799
161	0xc111272e	-9.072065
162	0xc079fc12	-3.9060102
163	0xc10a3857	-8.638755
164	0xc0063a8f	-2.0973241
165	0xc0eb0dd2	-7.345437
166	0xc09b2672	-4.848443
167	0xbfb4f9c2	-1.413872
168	0xc03e94d0	-2.9778328
169	0xc0fe3b10	-7.94471
170	0xc02c1ea4	-2.6893702
171	0xc0e2b23e	-7.084258
172	0xc019ae50	-2.4012642
173	0xc11450f2	-9.269762
174	0xbfe40422	-1.7813761
175	0xbfcf3e08	-1.6190805
176	0xc0803295	-4.0061746
177	0xc0de5911	-6.9483724
178	0xc0123d87	-2.2850053
179	0xc1129207	-9.160651
180	0xc003e798	-2.0610104
181	0xc0c9e32c	-6.308981
182	0xbf1d1f59	-0.6137596
183	0xc0093a69	-2.14419
184	0xbf99d90a	-1.201936
185	0xc0c1300c	-6.037115
186	0xbffba185	-1.9658667
187	0xc126d805	-10.427739
188	0xc054beec	-3.324153
189	0xc07b3bd9	-3.9255278
190	0xbfc831ec	-1.5640235
191	0xc01c09f8	-2.4381084
192	0xc016e714	-2.357854
193	0xc0cfa493	-6.4888396
194	0xc02e559a	-2.7239747
195	0xc0eb454a	-7.352208
196	0xc0b139b5	-5.5382943
197	0xc00568c9	-2.0845206
198	0xc0574133	-3.3633544
199	0xbfdb1e10	-1.7118549
200	0xc0219545	-2.5247357
201	0xc09cde08	-4.9021034
202	0xc03d731c	-2.9601507
203	0xc11bcb77	-9.737174
204	0xbfc9a799	-1.5754272
205	0xc0b4db9a	-5.651807
206	0xc056f360	-3.3586044
207	0xc02b486f	-2.676296
208	0xbfc915a4	-1.5709729
209	0xc0f2cf1e	-7.587783
210	0xbffcc6c7	-1.9748162
211	0xc0e963d2	-7.293435
212	0xc087070c	-4.21961
213	0xc0906a4b	-4.512975
214	0xbfcb80da	-1.5898697
215	0xc01a30a3	-2.4092185
216	0xc057f4c3	-3.374314
217	0xc0c584b7	-6.1724505
218	0xc00f7183	-2.2413032
219	0xc0ff401d	-7.9765763
220	0xc00eb2fe	-2.2296748
221	0xc0d54420	-6.664566
222	0xc013427f	-2.3009336
223	0xbff35aa5	-1.9012038
224	0xc0bcc467	-5.898975
225	0xc0ec4583	-7.3834853
226	0xbfb2959e	-1.395191
227	0xc116d73c	-9.427547
228	0xbf8e9484	-1.1139073
229	0xc112dcf8	-9.178947
230	0xc04b063d	-3.1722558
231	0xbfdf9686	-1.7467811
232	0xbfd4eeca	-1.6635373
233	0xc0bf50ee	-5.978629
234	0xc08fcba2	-4.4936075
235	0xc158d8bf	-13.552917
236	0xc072e26a	-3.7950692
237	0xc06e2a32	-3.7213254
238	0xc0111eb0	-2.267498
239	0xbf11cb1a	-0.56950533
240	0xc04ca249	-3.197405
241	0xc0c2684b	-6.075231
242	0xc00c249e	-2.189735
243	0xc1781a93	-15.506488
244	0xc02c0b5e	-2.6881938
245	0xc05e00f6	-3.4688087
246	0xbfb11d45	-1.3837057
247	0xbff80323	-1.9375957
248	0xc06a1238	-3.657362
249	0xc0dac81b	-6.836927
250	0xbfe4c91f	-1.7873877
251	0xc0dcf3d2	-6.904763
252	0xbfd5187a	-1.6648095
253	0xc0caa08d	-6.3320985
254	0xc080ac42	-4.0210276
255	0xc03891f8	-2.8839092

l3.bias f4 [859]
0	0xc161e121	-14.117463
1	0xc1a80ecf	-21.00723
2	0xc192a79e	-18.331844
3	0xc1935329	-18.415606
4	0xc192da9d	-18.356745
5	0xc191c22e	-18.219814
6	0xc193bfe3	-18.468695
7	0xc193086d	-18.379114
8	0xc192c3bd	-18.345575
9	0xc1927629	-18.307695
10	0xc1918410	-18.189484
11	0xc19233a6	-18.275219
12	0xc18e3e5a	-17.780445
13	0xc1926350	-18.298492
14	0xc192f303	-18.368658
15	0xc191a10b	-18.203634
16	0xc191c748	-18.222305
17	0xc1928783	-18.316168
18	0xc19088e0	-18.066833
19	0xc191f5b6	-18.244976
20	0xc193b376	-18.462627
21	0xc1930140	-18.37561
22	0xc191f2c3	-18.243536
23	0xc192651a	-18.299366
24	0xc192fca6	-18.373363
25	0xc191a349	-18.20473
26	0xc191eee4	-18.241646
27	0xc18ed24b	-17.852682
28	0xc192ec6c	-18.36544
29	0xc191c1e9	-18.219683
30	0xc1904353	-18.032873
31	0xc190e844	-18.11341
32	0xc1905ff7	-18.046858
33	0xc19268b2	-18.30112
34	0xc191b18e	-18.211697
35	0xc1922c18	-18.27153
36	0xc1930b13	-18.380407
37	0xc191ab08	-18.208511
38	0xc192ae39	-18.33507
39	0xc192d34b	-18.35317
40	0xc191b060	-18.21112
41	0xc19255bb	-18.29186
42	0xc192113b	-18.258413
43	0xc192385b	-18.277517
44	0xc1930c56	-18.381023
45	0xc193865b	-18.440603
46	0xc18ffb9c	-17.997856
47	0xc1925399	-18.29082
48	0xc19304aa	-18.377277
49	0xc1922a5e	-18.270687
50	0xc190f45b	-18.119314
51	0xc192e9b8	-18.36412
52	0xc1922eca	-18.272846
53	0xc192e35f	-18.361021
54	0xc191c7d1	-18.222567
55	0xc1927ffd	-18.312494
56	0xc1930c8b	-18.381124
57	0xc1920456	-18.252117
58	0xc190458f	-18.033964
59	0xc1929efd	-18.327631
60	0xc193778b	-18.43337
61	0xc1931b5a	-18.388355
62	0xc1924917	-18.285688
63	0xc19242e4	-18.282661
64	0xc191c8d9	-18.22307
65	0xc1911e3f	-18.139769
66	0xc1937c05	-18.435556
67	0xc1927209	-18.305681
68	0xc192ee5a	-18.366383
69	0xc19245ef	-18.284147
70	0xc192a8a9	-18.332354
71	0xc192a1cc	-18.329002
72	0xc19386d7	-18.44084
73	0xc193075c	-18.378593
74	0xc19309ce	-18.379787
75	0xc191c043	-18.218878
76	0xc19268af	-18.301115
77	0xc1916b39	-18.177355
78	0xc1932ca8	-18.396805
79	0xc192f399	-18.368944
80	0xc1929223	-18.321356
81	0xc1928c3c	-18.318474
82	0xc192bbd4	-18.341713
83	0xc1939e00	-18.452148
84	0xc19a72fd	-19.306147
85	0xc1927eff	-18.31201
86	0xc18f6e35	-17.928812
87	0xc192586c	-18.293175
88	0xc19140f8	-18.156723
89	0xc190acde	-18.084408
90	0xc1920cbe	-18.256222
91	0xc1912eb5	-18.147806
92	0xc192dfa8	-18.359207
93	0xc192537f	-18.29077
94	0xc191b10a	-18.211445
95	0xc192714d	-18.305323
96	0xc1921b2a	-18.263264
97	0xc1936c3a	-18.427845
98	0xc1938479	-18.439684
99	0xc19205c4	-18.252815
100	0xc190e71a	-18.112843
101	0xc1925ab6	-18.294292
102	0xc193655d	-18.424494
103	0xc193536b	-18.415731
104	0xc1900158	-18.000656
105	0xc19553a7	-18.665846
106	0xc192c136	-18.344341
107	0xc19250f4	-18.289528
108	0xc1913b9b	-18.154104
109	0xc1922117	-18.266157
110	0xc19217e0	-18.261658
111	0xc1933c8a	-18.40456
112	0xc192b381	-18.337648
113	0xc1931dc2	-18.38953
114	0xc192a3ac	-18.329918
115	0xc1935595	-18.416788
116	0xc192bc1a	-18.341846
117	0xc192646c	-18.299034
118	0xc190967d	-18.07348
119	0xc1921dfc	-18.26464
120	0xc19379bb	-18.434439
121	0xc192bbfe	-18.341793
122	0xc18f7285	-17.930918
123	0xc193157d	-18.385492
124	0xc192da58	-18.356613
125	0xc192133e	-18.259396
126	0xc192e11c	-18.359917
127	0xc1936350	-18.423492
128	0xc1937736	-18.433208
129	0xc19210ea	-18.258259
130	0xc192a291	-18.329378
131	0xc192a9a6	-18.332836
132	0xc18d5ad3	-17.669348
133	0xc193469c	-18.409477
134	0xc191e29b	-18.235647
135	0xc1935c94	-18.420204
136	0xc1932445	-18.39271
137	0xc1926267	-18.298048
138	0xc19256aa	-18.292316
139	0xc1914a0a	-18.161152
140	0xc192e2c0	-18.360718
141	0xc19315b5	-18.3856
142	0xc1918cfc	-18.19384
143	0xc192bf08	-18.343277
144	0xc1921cf4	-18.264137
145	0xc1928858	-18.316574
146	0xc1925e00	-18.295898
147	0xc190ad99	-18.084764
148	0xc192250d	-18.268091
149	0xc192ba8a	-18.341084
150	0xc192328d	-18.274683
151	0xc192a8ae	-18.332363
152	0xc1930069	-18.3752
153	0xc19231b6	-18.274273
154	0xc1926403	-18.298834
155	0xc192354b	-18.276022
156	0xc1916361	-18.173525
157	0xc193ca8e	-18.473904
158	0xc192a85d	-18.332209
159	0xc1933cfb	-18.404776
160	0xc192e31d	-18.360895
161	0xc1936f26	-18.429272
162	0xc191d489	-18.228777
163	0xc192bfaf	-18.343596
164	0xc1931f19	-18.390184
165	0xc1911f29	-18.140215
166	0xc19226cc	-18.268944
167	0xc192514d	-18.289698
168	0xc1937aa4	-18.434883
169	0xc196b6a4	-18.83918
170	0xc192f396	-18.368938
171	0xc191992a	-18.199787
172	0xc193169d	-18.386042
173	0xc19090ff	-18.070799
174	0xc1969fd9	-18.82805
175	0xc191bebd	-18.218134
176	0xc1908bfb	-18.06835
177	0xc191151d	-18.13531
178	0xc19161a6	-18.17268
179	0xc1938169	-18.438189
180	0xc19329df	-18.395445
181	0xc1921607	-18.260756
182	0xc19220c8	-18.266006
183	0xc191ef47	-18.241835
184	0xc1912949	-18.145159
185	0xc19668b4	-18.801125
186	0xc192acef	-18.33444
187	0xc192341d	-18.275446
188	0xc19202ea	-18.251423
189	0xc190f383	-18.118902
190	0xc1921838	-18.261826
191	0xc191f8f8	-18.246567
192	0xc192641a	-18.298878
193	0xc19194c9	-18.197649
194	0xc1916338	-18.173447
195	0xc1909407	-18.072279
196	0xc192994e	-18.324856
197	0xc191a0a9	-18.203447
198	0xc1909380	-18.072021
199	0xc19144ad	-18.158533
200	0xc1934da3	-18.412909
201	0xc1923262	-18.274601
202	0xc1900992	-18.004673
203	0xc192a59a	-18.33086
204	0xc1927478	-18.30687
205	0xc1925ea2	-18.296207
206	0xc191926a	-18.196491
207	0xc19205b6	-18.252789
208	0xc1923e48	-18.28041
209	0xc19219d7	-18.262617
210	0xc1922a42	-18.270634
211	0xc192a270	-18.329315
212	0xc192bfa7	-18.34358
213	0xc191208d	-18.140894
214	0xc1934b8a	-18.411884
215	0xc1936f5f	-18.42938
216	0xc193bcd4	-18.467201
217	0xc191bace	-18.216213
218	0xc191495b	-18.160818
219	0xc192500e	-18.28909
220	0xc18f350d	-17.900904
221	0xc1934fde	-18.413998
222	0xc192a85b	-18.332205
223	0xc1921366	-18.259472
224	0xc1924c42	-18.287235
225	0xc191f56c	-18.244835
226	0xc192b4fc	-18.338371
227	0xc192f329	-18.36873
228	0xc192b2d1	-18.337313
229	0xc192a1b9	-18.328966
230	0xc1929fb8	-18.327988
231	0xc193c78a	-18.472431
232	0xc1929813	-18.324255
233	0xc192fd8d	-18.373804
234	0xc191f255	-18.243326
235	0xc1920776	-18.253643
236	0xc1922e02	-18.272465
237	0xc1931d9f	-18.389463
238	0xc19008cb	-18.004293
239	0xc192e8d4	-18.363686
240	0xc1938136	-18.438091
241	0xc191cde8	-18.22554
242	0xc18ea208	-17.829117
243	0xc1943da0	-18.53009
244	0xc192e063	-18.359564
245	0xc1922a0d	-18.270533
246	0xc192a8c3	-18.332403
247	0xc19232f5	-18.274881
248	0xc1931cfc	-18.389153
249	0xc191629c	-18.17315
250	0xc192e009	-18.359392
251	0xc191b035	-18.211039
252	0xc191edac	-18.24105
253	0xc192c736	-18.347271
254	0xc1932378	-18.392319
255	0xc1938e70	-18.44455
